…
prediction = Dense(3, activation='softmax')(x)\par
# create a model object\par
model = Model(inputs=vgg.input, outputs=prediction)\par
# view the structure of the model\par
model.summary()\par
Model: "model"\par
_________________________________________________________________\par
 Layer (type)                Output Shape              Param #   \par
=================================================================\par
 input_1 (InputLayer)        [(None, 224, 224, 3)]     0         \par
                                                                 \par
 block1_conv1 (Conv2D)       (None, 224, 224, 64)      1792      \par
                                                                 \par
 block1_conv2 (Conv2D)       (None, 224, 224, 64)      36928     \par
                                                                 \par
 block1_pool (MaxPooling2D)  (None, 112, 112, 64)      0         \par
                                                                 \par
 block2_conv1 (Conv2D)       (None, 112, 112, 128)     73856     \par
                                                                 \par
 block2_conv2 (Conv2D)       (None, 112, 112, 128)     147584    \par
                                                                 \par
 block2_pool (MaxPooling2D)  (None, 56, 56, 128)       0         \par
                                                                 \par
 block3_conv1 (Conv2D)       (None, 56, 56, 256)       295168    \par
                                                                 \par
 block3_conv2 (Conv2D)       (None, 56, 56, 256)       590080    \par
                                                                 \par
 block3_conv3 (Conv2D)       (None, 56, 56, 256)       590080    \par
                                                                 \par
 block3_pool (MaxPooling2D)  (None, 28, 28, 256)       0         \par
                                                                 \par
 block4_conv1 (Conv2D)       (None, 28, 28, 512)       1180160   \par
                                                                 \par
 block4_conv2 (Conv2D)       (None, 28, 28, 512)       2359808   \par
                                                                 \par
 block4_conv3 (Conv2D)       (None, 28, 28, 512)       2359808   \par
                                                                 \par
 block4_pool (MaxPooling2D)  (None, 14, 14, 512)       0         \par
                                                                 \par
 block5_conv1 (Conv2D)       (None, 14, 14, 512)       2359808   \par
                                                                 \par
 block5_conv2 (Conv2D)       (None, 14, 14, 512)       2359808   \par
                                                                 \par
 block5_conv3 (Conv2D)       (None, 14, 14, 512)       2359808   \par
                                                                 \par
 block5_pool (MaxPooling2D)  (None, 7, 7, 512)         0         \par
                                                                 \par
 flatten (Flatten)           (None, 25088)             0         \par
                                                                 \par
 dense (Dense)               (None, 3)                 75267     \par
                                                                 \par
=================================================================\par
Total params: 14,789,955\par
Trainable params: 75,267\par
Non-trainable params: 14,714,688\par
_________________________________________________________________\par
# tell the model what cost and optimization method to use\par
model.compile(\par
…
